…
:::MLLOG {"namespace": "", "time_ms": 1603512066604, "event_type": "POINT_IN_TIME", "key": "opt_name", "value": "SGD", "metadata": {"file": "/scratch3/05231/aruhela/benchmarks/cosmoflow/cosmoflow-benchmark/utils/optimizers.py", "lineno": 75}}
2020-10-23 23:01:06,662 INFO Writing config via pickle to resultsdir/result-N16-n64-g-j1809592/config.pkl
2020-10-23 23:01:06,761 INFO Preparing callbacks
Model: "sequential"
_________________________________________________________________
Layer (type)                 Output Shape              Param #   
=================================================================
conv3d (Conv3D)              (None, 128, 128, 128, 32) 1056      
_________________________________________________________________
leaky_re_lu (LeakyReLU)      (None, 128, 128, 128, 32) 0         
_________________________________________________________________
max_pooling3d (MaxPooling3D) (None, 64, 64, 64, 32)    0         
_________________________________________________________________
conv3d_1 (Conv3D)            (None, 64, 64, 64, 64)    16448     
_________________________________________________________________
leaky_re_lu_1 (LeakyReLU)    (None, 64, 64, 64, 64)    0         
_________________________________________________________________
max_pooling3d_1 (MaxPooling3 (None, 32, 32, 32, 64)    0         
_________________________________________________________________
conv3d_2 (Conv3D)            (None, 32, 32, 32, 128)   65664     
_________________________________________________________________
leaky_re_lu_2 (LeakyReLU)    (None, 32, 32, 32, 128)   0         
_________________________________________________________________
max_pooling3d_2 (MaxPooling3 (None, 16, 16, 16, 128)   0         
_________________________________________________________________
conv3d_3 (Conv3D)            (None, 16, 16, 16, 256)   262400    
_________________________________________________________________
leaky_re_lu_3 (LeakyReLU)    (None, 16, 16, 16, 256)   0         
_________________________________________________________________
max_pooling3d_3 (MaxPooling3 (None, 8, 8, 8, 256)      0         
_________________________________________________________________
conv3d_4 (Conv3D)            (None, 8, 8, 8, 512)      1049088   
_________________________________________________________________
leaky_re_lu_4 (LeakyReLU)    (None, 8, 8, 8, 512)      0         
_________________________________________________________________
max_pooling3d_4 (MaxPooling3 (None, 4, 4, 4, 512)      0         
_________________________________________________________________
flatten (Flatten)            (None, 32768)             0         
_________________________________________________________________
dense (Dense)                (None, 128)               4194432   
_________________________________________________________________
leaky_re_lu_5 (LeakyReLU)    (None, 128)               0         
_________________________________________________________________
dropout (Dropout)            (None, 128)               0         
_________________________________________________________________
dense_1 (Dense)              (None, 64)                8256      
_________________________________________________________________
leaky_re_lu_6 (LeakyReLU)    (None, 64)                0         
_________________________________________________________________
dropout_1 (Dropout)          (None, 64)                0         
_________________________________________________________________
dense_2 (Dense)              (None, 4)                 260       
_________________________________________________________________
lambda (Lambda)              (None, 4)                 0         
=================================================================
Total params: 5,597,604
Trainable params: 5,597,604
Non-trainable params: 0
_________________________________________________________________
:::MLLOG {"namespace": "", "time_ms": 1603512066761, "event_type": "POINT_IN_TIME", "key": "opt_base_learning_rate", "value": 0.001, "metadata": {"file": "/scratch3/05231/aruhela/benchmarks/cosmoflow/cosmoflow-benchmark/utils/optimizers.py", "lineno": 58}}
…
